feedforward_nn_model.pth (torch, 21130 bytes, 5 tensors)

fc1.weight f4 [64, 5]
000000 86 1a ad 3d b2 45 c2 3e fb b6 6c 3e e1 ba 14 bf
       0.084523246 0.37943798 0.23116677 -0.58097655
000010 2d 19 21 3e 71 e5 fc 3d 97 aa db 3e f3 73 77 3e
       0.1573226 0.1234845 0.42903587 0.24165325
000020 5f 84 d8 be 91 34 c6 bd 34 cd ec be 5d a7 51 3e
       -0.4228849 -0.09677995 -0.46250308 0.20474
000030 cf d9 c7 3e bd 38 21 bf 95 b9 24 bf 4e f3 ae be
       0.39033362 -0.629772 -0.64345676 -0.34170002
000040 d4 8a 10 be 3a 09 ee be 8a cb 01 3f b2 49 8f 3e
       -0.14115459 -0.46491414 0.507012 0.27985913
000050 a8 a8 d4 3e a7 29 a0 3e 7f 64 24 3f 67 13 de bd
       0.41534925 0.31281778 0.64215845 -0.108435445
000060 b4 2e a9 bd 5a 39 fb 3e 51 36 25 bf 66 3e 27 be
       -0.08260861 0.49067193 -0.64536005 -0.16332397
000070 a5 1a 9a be 88 78 b5 ba 32 00 95 3e 5f e5 c1 3e
       -0.30098453 -0.0013845125 0.29101712 0.3787031
000080 a6 d3 1a be ec 4a b1 3e 06 6d a4 be 93 5e 86 3d
       -0.151198 0.34627473 -0.32114428 0.06561007
000090 41 4a 42 3f c1 ec 15 3e 9c 8e c7 be 80 6e 90 3e
       0.7589455 0.14641096 -0.3897599 0.28209305
0000a0 61 c3 c9 3d b5 3f 85 be 22 fe 20 3f 33 0b 17 3f
       0.09851719 -0.26025167 0.62887776 0.59001464
0000b0 80 80 70 bd 0b 43 99 3e 6c aa 1e 3e 93 15 9d 3d
       -0.058716297 0.29933962 0.15494698 0.076701306
0000c0 52 9d af be c9 8c df 3d 3d 06 4b 3e 77 f4 25 3f
       -0.34299713 0.109155245 0.19826598 0.6482615
0000d0 fd b3 01 3f c8 b5 af be d3 69 14 3e 06 93 82 bd
       0.50665265 -0.34318376 0.14493494 -0.06375699
0000e0 84 49 28 be 3c 53 13 3f 1b bb 38 3f dd 6a 7e 3d
       -0.16434294 0.5754888 0.721605 0.06211363
0000f0 5b 55 b4 be c3 1a 5b be cd ba fb bd 85 7c 15 be
       -0.3522137 -0.21396928 -0.12291489 -0.14598282
000100 d7 ba 4e be 95 04 d9 3d 54 b7 d6 3e de ca c4 be
       -0.20188461 0.10596577 0.41936743 -0.38436025
000110 7d 16 88 3e 7d 54 fa 3e 3a c1 ae be 16 22 1b be
       0.26579657 0.48892584 -0.34131795 -0.15149722
000120 74 1b de 3e 8c 9e af 3d 74 ff a5 3e 9a 73 0e bd
       0.4338032 0.08575162 0.32421458 -0.034778215
000130 23 6e 85 be f6 44 0f 3e a3 75 17 bf 6c 71 74 3d
       -0.2606059 0.1399115 -0.59163874 0.05967848
000140 83 bd 09 3f e2 96 b0 be 44 aa 50 3e 52 de d6 3e
       0.53804797 -0.34490114 0.20377451 0.41966492
000150 cf 6d ee be af d7 2d be cb 17 be be 97 27 58 be
       -0.46568152 -0.16976808 -0.37127528 -0.21108852
000160 8d ff 92 be b4 cb 28 be ad c6 c6 3e bf ba aa 3c
       -0.28710595 -0.16483957 0.38823453 0.020841
000170 36 6b e2 bd 36 17 d1 3e e5 7b 0a 3f ba f4 ae be
       -0.11055605 0.4083802 0.540953 -0.34171087
000180 b3 f9 86 3e 69 94 b1 3e 16 50 b5 bd 19 e7 b8 be
       0.2636238 0.3468354 -0.08853166 -0.36113814
000190 3f 95 20 be df cc 50 3e 4b e9 52 be cf 2e c1 be
       -0.15681933 0.20390652 -0.20596807 -0.37731025
0001a0 f5 eb e2 be a6 e2 b9 3e 0f d7 0e 3f 8a de 4d 3d
       -0.44320646 0.36305732 0.55796903 0.050261058
0001b0 f6 68 fe 3d 15 ad 0a 3f f1 b4 e9 3c 6b 99 e9 3d
       0.124223635 0.5417035 0.028528662 0.11406215
0001c0 d0 62 b7 3e d6 9e 2b 3f 12 43 a7 3e 7c 52 81 3e
       0.35817575 0.6703924 0.32668358 0.25258243
0001d0 d3 1c b1 3e 53 0e 21 3f 56 07 20 bf 47 5b f1 3d
       0.34592304 0.6291248 -0.62511194 0.11784988
0001e0 38 78 84 be 1e 2d 84 3e 09 8a f8 3e 04 bf 17 3f
       -0.2587297 0.25815672 0.48542812 0.5927584
0001f0 01 59 8d 3d 0a 47 06 3f 7d eb 1d bf d9 e8 d7 3e
       0.06901742 0.52452147 -0.6168745 0.42169836
000200 a6 0d 51 3e 1b da c4 be d7 4b 7d be a3 43 0b bf
       0.20415363 -0.3844765 -0.24735962 -0.5440008
000210 0d c0 97 3e 16 2a 2c 3f b6 2e f0 be cc de 47 3f
       0.2963871 0.6725172 -0.46910638 0.78074336
000220 21 a0 03 3d 09 56 99 3e 29 6d 29 bf 3c 77 2a be
       0.032135133 0.29948452 -0.6618219 -0.16647047
000230 90 20 d8 3b 54 2e db be 94 01 06 3e b8 8a 92 be
       0.0065956786 -0.42808783 0.1308654 -0.2862146
000240 71 09 ce 3e 81 e9 16 3f 5e f4 ce be 4a 90 4b bf
       0.40241578 0.5895005 -0.40420812 -0.7951704
000250 10 36 84 3e 9d f8 94 bd f1 0c e5 3e f5 9d ac be
       0.25822496 -0.07273982 0.44736436 -0.33714262
000260 0f 13 4e bf af b7 b0 be 4a 5f 25 be a9 56 80 bd
       -0.8049783 -0.3451514 -0.16149631 -0.06266529
000270 de b0 84 be a4 9d ee be e6 f7 cc bd 40 6e dc 3e
       -0.2591619 -0.46604645 -0.100082204 0.43052864
000280 90 9a ce bd 5f ac 6c bc a9 6e cb be bb a2 57 be
       -0.10088074 -0.014445393 -0.39732864 -0.2105817
000290 c4 b6 fc 3e f2 ec 90 be 21 58 74 3d c7 e5 fd bd
       0.4935819 -0.28305775 0.05965436 -0.12397342
0002a0 00 ff 39 3f 5b 01 20 3e 38 14 cf 3e 98 86 19 3e
       0.72654724 0.15625517 0.40445113 0.1499275
0002b0 a1 08 b4 3e a4 28 91 be fd de 39 be d1 8c b1 3e
       0.35162833 -0.2835132 -0.1815147 0.34677747
0002c0 4f 13 5e be 92 02 f4 3e c4 e0 32 be 3d 11 d0 3e
       -0.21687053 0.4765821 -0.17468554 0.40638152
0002d0 e8 90 f5 3d 2b dd 09 bf 65 d8 fb 3d dc 12 d6 3e
       0.11990529 -0.538531 0.12297133 0.41811264
0002e0 b9 81 1a bf 52 5c 1f be 26 d7 3a 3f af 10 b0 3e
       -0.6035419 -0.15562561 0.7298454 0.3438773
0002f0 e1 9d 6a 3c ee 04 8b be d1 b8 58 3d 49 79 05 bf
       0.014319868 -0.271522 0.05291063 -0.5213819
000300 c8 50 c0 3e c1 ef 07 be 11 e2 a7 be 81 f1 80 3e
       0.3756163 -0.13275053 -0.32789662 0.25184253
000310 df 1b e6 be 32 aa 73 3d b7 24 45 3e 5c f9 19 3f
       -0.4494314 0.059488483 0.19252287 0.6014612
000320 45 c2 4a 3e 10 00 10 3f ae 71 01 bd 1e da 15 bd
       0.1980067 0.56250095 -0.031602554 -0.036584966
000330 eb 3a 03 be 04 16 ff 3c 5c 03 ec be a0 8f 95 be
       -0.12815444 0.031138428 -0.46096313 -0.2921114
000340 ab a6 19 bf 5e 79 7f 3c 43 bc 3c 3d 2d c3 2b bf
       -0.6001994 0.015592901 0.046077978 -0.6709469
000350 fe b8 f8 3d 9b 2d c1 be 9a 43 2b 3d 90 64 06 3f
       0.121446595 -0.37730107 0.041812517 0.52497196
000360 6d 33 bb be a3 5a db bd d6 81 aa 3e 97 e0 a1 be
       -0.36562672 -0.10710647 0.33302182 -0.3161666
000370 b6 73 b9 be c2 39 b9 3e 7f 22 4f be 32 37 8b be
       -0.36221093 0.36176878 -0.20228003 -0.27190548
000380 f1 04 70 3e 29 e1 28 bf 77 b7 b8 3e 51 f0 44 be
       0.23439385 -0.6596857 0.36077473 -0.19232298
000390 4f e7 a0 be 9a c0 c3 be b0 72 4f bd e7 3c 22 bf
       -0.31426474 -0.3823288 -0.050646484 -0.6337418
0003a0 38 53 33 3c 2a 40 a3 3c c0 50 0e 3c 65 f2 ca be
       0.010945134 0.019928057 0.0086862445 -0.39638057
0003b0 d0 03 f5 be 7c 25 b1 3d e3 d3 ce 3d 5b 79 03 3f
       -0.4785447 0.08649728 0.10099008 0.5135705
0003c0 01 38 a6 be 72 2a 3c be 6e f4 06 bf 4f 11 39 bc
       -0.32464603 -0.18375567 -0.5271672 -0.011295631
0003d0 4a 9e e0 3e 65 58 4f be f6 19 15 3e 26 13 14 be
       0.43870765 -0.20248564 0.14560685 -0.1446043
0003e0 3a 15 5d bd f9 c9 85 bd ce 2e 82 3d 45 96 ca be
       -0.05397532 -0.06532664 0.063565835 -0.39567772
0003f0 c2 59 fb 3e 49 f4 21 bf cf 40 64 bd 20 4c 91 be
       0.49091917 -0.63263375 -0.05572587 -0.2837839

fc1.bias f4 [64]
000000 05 e0 0d 3e 5a ba 0d 3f 80 5e 9e bd 77 c7 d3 3e
       0.13854988 0.55362475 -0.07732868 0.41363117
000010 ca 48 c1 be d3 f9 96 3e c7 54 64 be 49 36 2a 3c
       -0.37750846 0.29487476 -0.22297965 0.010388919
000020 7d 21 af bd c5 89 d4 3e 25 a5 3e be 6c 7b d6 be
       -0.08551309 0.4151136 -0.18617685 -0.41891038
000030 1f 08 16 3f 56 e4 af ba a6 d3 52 bd 54 cb 9d 3e
       0.5860614 -0.001341949 -0.051471375 0.3081919
000040 c1 ef 06 3e bd 3a 7f 3d e2 cd d5 be a0 9f da 3e
       0.13177396 0.062311877 -0.4175864 0.4269991
000050 ce 27 1e 3f 86 89 05 be 3c 30 35 3e 41 3f e4 be
       0.6177949 -0.13040742 0.17694181 -0.4457951
000060 63 cd 1c be 36 d5 5c bd f0 9e f2 bd 70 31 fa 3c
       -0.15312724 -0.05391427 -0.11846721 0.030541152
000070 10 7b b7 bd 9c 95 e5 3d 17 37 b8 be 8f 81 bf bd
       -0.08959019 0.11210176 -0.3597953 -0.09350883
000080 64 8c f0 be e2 52 17 3e e5 61 5b 3e 09 34 f9 3e
       -0.4698211 0.14777711 0.21424063 0.48672512
000090 28 c9 8b 3e e2 b1 71 3d 03 91 dc bd c2 a7 ba be
       0.27301908 0.059007533 -0.10769846 -0.36456114
0000a0 9d f8 a9 be 81 45 15 bf d1 6f a9 3e 46 5d d6 bd
       -0.3319749 -0.5830918 0.33093122 -0.10467009
0000b0 13 67 cf 3e db 28 97 be 1f 2c 0f be d6 0c a1 be
       0.40508327 -0.29523358 -0.13981675 -0.31455106
0000c0 92 4f e3 3d 77 5c d2 3e b4 ba b1 3e 5b 00 a6 be
       0.11099161 0.4108617 0.34712756 -0.32422146
0000d0 1c 20 83 be d3 de 80 be 48 07 58 be ad 31 91 be
       -0.25610435 -0.2517 -0.21096528 -0.28358212
0000e0 a2 f1 38 bd 86 9b 3e be d1 6e cc bd 35 00 a1 be
       -0.045152314 -0.18614015 -0.09982074 -0.3144547
0000f0 89 e0 e5 3d c0 40 a8 bd 9d 4e 61 be e6 e7 d4 be
       0.11224467 -0.08215475 -0.22002645 -0.41583174

fc2.weight f4 [64, 64]
000000 44 a1 97 3e 13 a8 da 3c c6 5c d0 be fb 78 b8 3c
       0.29615223 0.026691472 -0.4069578 0.022518625
000010 cc 02 c3 3e 3f 1d 46 3d b9 0c 86 bc 69 de 37 3e
       0.3808807 0.048367735 -0.016363489 0.17955936
000020 f4 cf aa be 9f f4 b5 3d cf d6 2a be 37 ba 89 bf
       -0.3336178 0.088845484 -0.16683505 -1.0759953
000030 cc 0d 82 3d 88 10 c1 3c a5 b6 d1 bc 94 82 5e 3e
       0.06350288 0.023567453 -0.025599787 0.21729499
000040 71 86 22 be 3c 3e 9b bd dd 4c 94 be ab 43 d5 3b
       -0.15871598 -0.0758023 -0.28964892 0.006508311
000050 2a ee f9 bd 07 d7 a7 3d f7 a0 ec bd 9b b7 e1 be
       -0.12203629 0.0819531 -0.11554139 -0.44085392
000060 3e 4c 66 be 9e 06 d6 3e 97 ea a4 3e bf 02 06 3e
       -0.22490022 0.41801924 0.32210228 0.13086985
000070 92 e7 af 3c 3a 9f df 3d cb a6 2d be 40 36 1a be
       0.021472726 0.10919042 -0.16958158 -0.15059757
000080 68 57 b4 be df 03 ab bd 24 ea 84 bd 5c 5d b6 3d
       -0.35222936 -0.08350348 -0.06489971 0.08904526
000090 0c 19 11 3e aa b3 38 3e 5c 46 b5 bd 4c 24 3d be
       0.14169711 0.18037286 -0.088513106 -0.18470877
0000a0 e0 8b 8c 3e fa c9 29 be ac 55 5b 3e 14 c5 67 be
       0.27450466 -0.16580954 0.214194 -0.22633773
0000b0 10 27 99 bd 52 45 05 3e 5d 1b 35 3e 5d e8 f8 3d
       -0.07478154 0.13014725 0.1768622 0.12153695
0000c0 15 3a 1f bd c4 57 0b 3d c9 83 1b 3c 7d 88 94 be
       -0.03887375 0.034019247 0.009491869 -0.29010382
0000d0 b7 56 4f be 6e 90 d9 3e bf 3e 27 be bf fd a5 3d
       -0.20247923 0.42493004 -0.1633253 0.08105039
0000e0 51 ff 2d bd a2 76 89 3e 93 c6 88 be c4 5d de bd
       -0.042479817 0.26848322 -0.26714 -0.10857728
0000f0 df 19 7e bd 0f 67 8f bd 39 20 c9 3d 98 2e 4a be
       -0.06203639 -0.07002079 0.09820599 -0.19744337
000100 af b1 99 3e 46 45 fd 3d 09 9e ff bd b9 e3 82 3e
       0.30018374 0.123667285 -0.12481315 0.25564364
000110 7f f0 dc 3d b1 18 85 bd 05 f7 83 be 80 27 93 bc
       0.107880585 -0.0649885 -0.25774398 -0.017963171
000120 01 bd 31 be db 61 87 3e 14 bf 5f bd a5 e2 ce bf
       -0.17357256 0.26441845 -0.054625586 -1.6162916
000130 75 46 da bb e5 60 1e 3d cc a5 e0 bd d3 20 1c 3d
       -0.006661231 0.038666625 -0.10969123 0.03811724
000140 5e c2 69 be 55 cd ad bb 00 45 b9 be eb 49 40 be
       -0.22828051 -0.0053040185 -0.36185455 -0.18778197
000150 eb f2 e2 bc a4 73 7e be 85 79 f1 ba 4f 79 80 be
       -0.027703723 -0.24848801 -0.0018423056 -0.2509255
000160 cf d7 8b 3c 29 6f 5e 3e 77 2a a0 3e 29 c0 e8 3d
       0.017070679 0.21722092 0.31282398 0.11364777
000170 9c 75 3b 3d 60 c7 73 3e ff 83 54 be f1 88 9a 3d
       0.045766458 0.23806524 -0.20753478 0.07545651
000180 91 d2 e7 be 59 b0 33 3e 45 de 8d bc 3b c3 83 3e
       -0.45277837 0.1754774 -0.0173179 0.25734887
000190 41 4d c0 3c bf 98 81 3e 52 48 e3 bd 45 bc 51 be
       0.023474338 0.2531185 -0.110977784 -0.20481975
0001a0 a7 65 2b bd 2e 87 86 be ee e8 04 3d b9 6c e1 3c
       -0.04184499 -0.2627501 0.0324487 0.027517663
0001b0 13 39 1a 3e 16 51 60 3d fd 4f 3a 3e 8d fa ce bd
       0.15060835 0.05476483 0.18194576 -0.101063825
0001c0 af 25 1c 3e 70 af 9e 3d 93 62 d6 3d b3 b1 7b be
       0.1524875 0.07748306 0.1046802 -0.24579506
0001d0 9f 76 a7 be bc e5 f9 3e ce da 51 be 80 4b 4d 3e
       -0.32707688 0.48808086 -0.20493624 0.20048332
0001e0 0c 57 b5 bd 35 a6 b8 3e d4 7b 85 bc 10 0a c7 be
       -0.088544935 0.36064306 -0.016294397 -0.38874865
0001f0 53 70 93 3d a6 82 98 bd 17 cc bd bd 8d 95 92 be
       0.071991585 -0.07446794 -0.09267443 -0.28629723
000200 dc 5c 9c bd 76 2e 58 be 9a 02 84 3e 0c 42 0a 3d
       -0.07634899 -0.21111473 0.25783235 0.033754393
000210 5a 59 9e be 7e 11 62 be 57 dc 65 3e e5 7d 32 3e
       -0.30927545 -0.22076985 0.22447334 0.17430837
000220 90 37 1e 3f 3a ed 9e bc 89 7b 8c 3e e0 bb da 3f
       0.6180353 -0.019400228 0.27438 1.7088585
000230 30 bc 08 3d 31 62 84 bc 9d c6 37 3e de cc b4 bd
       0.033382595 -0.016160103 0.17946859 -0.08828138
000240 0a 02 ab 3e ce 7a a3 bd 04 c2 1c 3d 9d 29 a8 bd
       0.33399993 -0.079824075 0.038270965 -0.08211062
000250 8d 0c ff bd 7d 20 2f 3d 89 ad 7d 3d 49 ea 54 3e
       -0.12453566 0.042755593 0.061933074 0.20792498
000260 f1 5b 6b 3e 98 c2 f9 3e 38 21 22 be 1f 04 30 be
       0.22984292 0.48781276 -0.15832984 -0.17189072
000270 0e 0e 24 3e 3d 7a 74 be 16 f3 11 3f 21 b0 c3 3d
       0.16020986 -0.23874755 0.57011545 0.09555078
000280 d2 15 f0 3e 35 29 49 bd 73 d0 d2 3c a1 69 cf 3d
       0.46891648 -0.049111564 0.025734162 0.10127569
000290 df b8 d9 bd fe cb 21 bf 1b bc 87 3e ae 84 63 3e
       -0.106309645 -0.6320189 0.265107 0.22218582
0002a0 f8 76 91 bf b4 90 46 3e 73 84 38 be 50 e7 92 3e
       -1.1364431 0.19391137 -0.18019275 0.28692102
0002b0 38 59 40 3e 19 0f 2b bd dc 80 8b 3c c1 2c 07 3e
       0.18784034 -0.041762445 0.017029218 0.13200666
0002c0 aa a8 59 bd a4 d8 29 bc 53 f0 e9 bd 41 dc 66 be
       -0.053139366 -0.010366593 -0.11422791 -0.22544958
0002d0 91 65 4a 3e 46 38 70 3e 27 c2 5d 3e b3 70 10 bf
       0.19765307 0.23458967 0.21656094 -0.56421965
0002e0 d3 06 66 be 5e 4e 40 3c f1 7e 14 3e 93 3f db 3e
       -0.2246354 0.011737434 0.1450155 0.4282194
0002f0 cc 44 45 39 d8 fd 7b 3e 83 8d 15 3e 83 98 9f 3e
       0.00018813013 0.24608552 0.14604764 0.31171045
000300 e4 30 9e 3e 42 33 54 bd 7d c9 76 be fe 95 70 3d
       0.30896676 -0.051806696 -0.24100299 0.058736794
000310 be c2 8e 3d 3a 35 3b 3d 47 5c 06 be 32 94 94 3d
       0.06970738 0.045705058 -0.13121139 0.072548285
000320 a3 8a c0 be 32 ae a8 3d 11 30 8e bd 2e bb 8a bf
       -0.3760577 0.0823635 -0.06942762 -1.0838373
000330 a9 9e a0 3d 14 ad 8f bd 08 50 cd bd 7e eb ef 3c
       0.07842762 -0.07015434 -0.100250304 0.029287096
000340 22 43 93 be fa 23 53 bd b1 0c 93 be 7b 27 e0 ba
       -0.28762156 -0.05154798 -0.2872062 -0.001710161
000350 25 44 be bd ab 2c 19 3e df 58 9b 3c 9b 94 ad be
       -0.09290341 0.14958446 0.018963275 -0.3390244
000360 c6 44 43 be 0e d0 d3 3e 0c 68 b4 3e ee d8 85 3d
       -0.19069204 0.4136967 0.3523563 0.06535517
000370 8c 1a b4 bc 5f 3b 68 3e 5c c8 1b be c4 fd 09 be
       -0.021985315 0.22678898 -0.1521315 -0.1347571
000380 db 0a 67 be 6a 88 1e be 4f 6b ea 3c c7 37 ce 3d
       -0.22562735 -0.15481725 0.028615622 0.100692324
000390 e9 44 51 3e 1a 2f fa 3d 2f 86 60 bd 89 3b 78 be
       0.20436443 0.12216015 -0.054815467 -0.24241461
0003a0 1d 10 e9 3d bd 25 66 be e0 7a 4e 3e 00 3a 58 bd
       0.113800265 -0.22475334 0.2016406 -0.052789688
0003b0 ed d6 06 3e 02 f7 fd 3d b4 98 49 3e c9 ae a3 3d
       0.13167925 0.124006286 0.19687158 0.07992322
0003c0 c6 d0 ab bc 26 56 4d 3d f3 51 0c 3e 9a c0 17 be
       -0.020973574 0.050130986 0.13703136 -0.14819565
0003d0 5c 2b 8c be 36 ff b0 3e 70 87 4f be df d5 ce 3d
       -0.2737683 0.3456971 -0.20266509 0.100993864
0003e0 9d 75 a8 bd 67 e2 af 3e 5c 7c 56 be 45 84 f6 be
       -0.08225558 0.3435242 -0.20945877 -0.4814779
0003f0 aa 93 7a 3d 53 a0 46 be 6d 8a 14 3e 8d e9 83 be
       0.06117598 -0.19397096 0.1450593 -0.25764123

fc2.bias f4 [64]
000000 13 c5 0e 3e 41 eb a4 3d 21 48 2f ba 04 b5 ac 3d
       0.13942365 0.080526836 -0.0006686468 0.084329635
000010 84 7c 83 3d 92 94 40 bd aa 3b 4d be 31 12 ad 3d
       0.06420234 -0.047016688 -0.20042291 0.08450735
000020 88 0b 97 3b a9 33 2b bd e2 8b 9a 3d 4a 23 ae bd
       0.004609529 -0.041797314 0.07546212 -0.085028246
000030 15 a3 f0 3d f1 63 4a be 27 80 8b 3e 2f 73 0b be
       0.117498554 -0.19764687 0.2724621 -0.13618158
000040 f5 65 57 bc 4c e1 0e bd a3 51 f9 3c 9f aa ee bd
       -0.013146867 -0.03488283 0.030434435 -0.11653637
000050 c4 cd 12 bc 45 9a 09 3e a2 ef 51 3d ab 22 a1 3d
       -0.008960191 0.13437755 0.051253922 0.078679405
000060 2d ca 84 3d f8 45 20 bc a8 56 5a 3e f7 cb 1b bd
       0.064838745 -0.009782307 0.21322119 -0.038036313
000070 14 d4 c8 3d 64 8c 9f bd 36 e2 52 be 25 39 05 bd
       0.09806076 -0.07790449 -0.20594105 -0.0325252
000080 23 82 84 3e 3a 70 26 3e 8d 51 67 be 38 9d e2 3d
       0.25880536 0.16253749 -0.22589703 0.11065143
000090 6f 90 33 3d 78 52 a8 bd 57 a6 03 be 83 37 00 be
       0.043838914 -0.08218855 -0.12856422 -0.12521176
0000a0 59 1e 1d be cb 39 24 3e f1 00 e8 bc 76 dd ec bd
       -0.15343608 0.16037671 -0.028320761 -0.11565678
0000b0 30 c9 63 bc fb c8 db 3c 4d e9 2c 3e 58 43 c2 bd
       -0.013902947 0.026829233 0.16885872 -0.09485501
0000c0 d3 ac be bd b7 ee ad bb 9b 31 fa bd d0 88 55 3d
       -0.09310307 -0.005307998 -0.12216493 0.052132428
0000d0 76 f4 b5 bd 15 8a 0e 3c d7 9d 1b 3e bb fe 65 bd
       -0.08884518 0.0086999135 0.1519693 -0.056151133
0000e0 a9 f2 2c 3e 11 78 53 3d ae 64 8f 3b f8 e6 0f 3e
       0.16889443 0.051628176 0.0043760156 0.14052951
0000f0 73 2b 0e be d0 78 99 bc a8 ab b7 bd 0f ff 02 be
       -0.13883762 -0.018734366 -0.08968288 -0.1279261

fc3.weight f4 [1, 64]
000000 95 c8 d7 be cb 79 26 bf be b6 45 3f 51 5a 21 bf
       -0.4214522 -0.6502959 0.7723197 -0.63028437
000010 20 83 fb be fb 03 05 3f cf 9d 92 bf 70 2c 1e bf
       -0.49123478 0.519592 -1.1454409 -0.61786556
000020 cb 73 8d bf 52 df 76 3f dc b4 ea be e9 d1 0c 3f
       -1.1050962 0.9643451 -0.4584111 0.550078
000030 c5 1d 2c bf a3 3f 2d 3f e3 8f 0a bf d6 62 10 3f
       -0.67232925 0.67675227 -0.54125804 0.5640081
000040 4d 28 6b 3f 76 41 2a bf bf 97 22 3f 96 a6 5c 3f
       0.9185837 -0.66506135 0.63512796 0.8619169
000050 4f b1 24 bf 15 2b d3 be 5a 62 05 bf 70 66 bf be
       -0.6433305 -0.41243806 -0.521032 -0.3738284
000060 0d 16 30 3f 6b c9 91 3f 08 3d db be 69 3a 20 3f
       0.68783647 1.1389593 -0.4282 0.62589127
000070 53 7d 64 bf 48 aa 97 bc 29 1d 52 3f c5 ee 23 3f
       -0.8925373 -0.018513814 0.82075745 0.6403621
000080 91 4a 27 bf c3 bb 23 bf 6c 0f 86 3f 4a e6 12 bf
       -0.65348154 -0.63958377 1.0473456 -0.57382643
000090 b6 e9 ef be 17 4b 26 3f 28 68 3d 3f 23 f6 6d 3f
       -0.46857995 0.6495833 0.73987055 0.929537
0000a0 e2 19 20 3f 38 78 35 bf 2a 53 30 3f 50 39 5a bf
       0.62539494 -0.70886564 0.688769 -0.852437
0000b0 8c bc 38 3f 0d 22 26 bf c5 ba 33 bf 11 a9 36 3f
       0.721627 -0.6489571 -0.7020686 0.71351725
0000c0 08 c7 3b 3f fd 41 5c 3f 9f 8f 28 3f 55 f1 17 bf
       0.7335057 0.8603819 0.6584415 -0.5935262
0000d0 00 3c c4 bd 35 aa 14 bf 72 4e e6 be bb 27 10 3f
       -0.095817566 -0.58072215 -0.44981724 0.56310624
0000e0 4a 0f fe be 12 06 02 3f 0f fd 61 3f fc 2b 01 bf
       -0.4962104 0.5079051 0.8827676 -0.5045774
0000f0 ba 10 1b 3f 4d b6 04 3f 6d 63 84 3f 68 9e 3c 3f
       0.605724 0.5184067 1.0342842 0.7367921
