output/autoencoder.pth (torch, 2160 bytes, 4 tensors)

encoder.0.weight f4 [2, 5]
-0.5788918 -0.57523125 0.12818891 -0.13693625 -0.014505447 0.04973978 0.075102426 0.6823757
-0.72186434 0.035732005
00000000: 4132 14bf 5b42 13bf f443 033e 0439 0cbe
00000010: 41a8 6dbc f1bb 4b3d 4dcf 993d 2db0 2e3f
00000020: 1acc 38bf b95b 123d

encoder.0.bias f4 [2]
-0.45558396 -0.35923645
00000000: 4d42 e9be d7ed b7be

decoder.0.weight f4 [5, 2]
-0.84394073 0.16513504 -0.85332716 0.15365458 0.07363718 0.69139487 -0.07850628 -0.7020751
-0.021551427 0.051090095
00000000: 800c 58bf 2919 293e a673 5abf a057 1d3e
00000010: 17cf 963d 41ff 303f e7c7 a0bd 32bb 33bf
00000020: 9e8c b0bc d943 513d

decoder.0.bias f4 [5]
-0.32961634 -0.32715452 0.26786548 -0.3032982 -0.045220766
00000000: 79c3 a8be cc80 a7be aa25 893e e749 9bbe
00000010: 6939 39bd
